MODELS/pytorch_model.pth (torch, 6899 bytes, 7 tensors)

input.weight f4 [20, 37]
000000 12 3c 6f bf cc e7 4c be 4d 7e 2e 3f 39 5f 13 3d
       -0.93451035 -0.20010298 0.6816147 0.035979483
000010 2c a8 bb be 93 ab 15 bf 57 7e 12 3e eb b0 64 3f
       -0.36651742 -0.58464926 0.14306007 0.89332455
000020 6c f7 12 3f 49 bc 1c 3e c6 32 cd 3e 7b 9b 94 3e
       0.57408786 0.153062 0.400778 0.29024872
000030 65 56 2d 3e db 5c 48 3f 29 a3 85 3f 0f ba ed 3d
       0.16927488 0.78266686 1.0440418 0.116077535
000040 90 76 64 3f bb 2f 5f 3f 91 12 3b 3e e5 92 61 3f
       0.8924341 0.87182206 0.18268801 0.8811477
000050 a8 1a 4b 3f 36 60 8b 3f 3f 8c 48 3d 73 31 6b 3f
       0.7933755 1.0888736 0.048961874 0.9187233
000060 16 61 3f bf 4d 68 87 3e 03 b0 44 3f 29 0b e4 be
       -0.74757516 0.26446763 0.7683107 -0.44539765
000070 fb d8 86 be 3d 40 df bd dc 18 70 be 18 7a 60 3f
       -0.26337418 -0.10900924 -0.23446983 0.876863
000080 cd b3 64 3f 97 c8 d6 bc f3 dd b7 3d c0 31 83 3d
       0.89336854 -0.026218696 0.0897788 0.064059734
000090 62 ac 25 bd 00 e4 69 bf 6f 26 1b be 56 4a 1b 3f
       -0.0404476 -0.91363525 -0.1515138 0.606603
0000a0 c2 a8 8c bd 2e a9 d1 be 7f bd 3e bf ec c8 22 3e
       -0.068681255 -0.40949386 -0.745079 0.15896958
0000b0 a5 46 88 3f 27 63 c4 3e f7 ae 81 3e 67 d8 e6 3e
       1.0646559 0.38356897 0.253288 0.45086977
0000c0 cc 28 82 3d 31 c7 1a 3e 58 d0 77 3f de 5b 68 3f
       0.06355438 0.15115048 0.9680228 0.9076518
0000d0 fc 8e 40 3c 29 22 4f 3f 38 6f 50 3f 12 c5 c7 3d
       0.01175284 0.809115 0.81419706 0.09754385
0000e0 35 c8 85 3f 64 a2 43 3f 93 71 78 3f 54 d7 c3 bc
       1.0451723 0.76419663 0.970483 -0.023906387
0000f0 70 01 4c 3f 2a 4b 2c bf b4 17 b7 3d b8 0f 4f 3f
       0.79689693 -0.6730219 0.08940068 0.8088336
000100 52 09 98 be 7a b0 13 be f6 34 21 3e 7b 01 95 be
       -0.2969461 -0.14422789 0.15742859 -0.29102692
000110 d7 ae 4e 3f b4 27 21 3f 44 f3 8a bd 5a 0f 1e be
       0.80735534 0.6295121 -0.067846805 -0.15435544
000120 0f 34 96 3d 0f 8e 57 3d b1 83 82 3f 5c ba cf 3e
       0.07334148 0.052625712 1.0196439 0.40571868
000130 50 ce 15 bf 0b 01 ce bc 6f 1f ae 3e d5 56 37 3f
       -0.5851793 -0.025146982 0.34008357 0.7161687
000140 ec 8c ae be c8 70 80 bf 84 3a eb be f5 67 b0 be
       -0.3409189 -1.0034418 -0.4594308 -0.34454313
000150 81 b6 94 be a5 93 35 be 74 5b 52 3c e7 49 3b bf
       -0.2904549 -0.17732103 0.012839187 -0.7315964
000160 51 de 4c bf 40 0f d5 3d e3 f5 47 bf 37 91 5c bf
       -0.8002673 0.10403299 -0.7810957 -0.8615908
000170 f7 2a d3 bd 30 40 87 bf 13 8d 6b bf ea 3e 70 bf
       -0.10310929 -1.0566463 -0.9201214 -0.93846
000180 f2 1e 81 be 00 58 4e bf 0e d6 24 3f 12 57 83 bc
       -0.25218922 -0.8060303 0.6438912 -0.01603273
000190 d8 2c 38 bf a7 f1 c3 3e 3b ba 26 3e da 68 66 bc
       -0.71943426 0.38270304 0.16281979 -0.0140630845
0001a0 62 cf d4 3e 71 85 77 bf e4 24 14 bf 8a a1 f1 bd
       0.4156447 -0.9668799 -0.5786879 -0.11798389
0001b0 17 04 46 3e 47 bb 73 3c c6 e4 de bd 5a a0 55 3f
       0.19337498 0.014876193 -0.10883479 0.834478
0001c0 e5 d8 a9 3e 30 ba 29 bf b3 b7 23 be ba 8c 9d 3e
       0.3317329 -0.66299725 -0.15988044 0.30771428
0001d0 59 d5 0c 3f 35 96 75 be dc 27 6b bf 9e c9 1c bf
       0.5501304 -0.2398308 -0.91857696 -0.61245143
0001e0 a8 e8 1d be c7 6b 05 bf f9 d4 e0 bd f7 15 6c bd
       -0.15420783 -0.5211758 -0.10978121 -0.057638135
0001f0 1c 0c 3a bf 97 90 81 bf 51 9a 71 3c 87 78 83 bf
       -0.7267473 -1.012225 0.014746265 -1.0271157
000200 00 ff 61 bf 21 5b 86 be 5d 5b 78 bf fe de 3f bf
       -0.88279724 -0.262414 -0.9701441 -0.74949634
000210 fd 4f 83 bf 31 6e 81 be 4e 9a 2a bf fc 61 dc 3e
       -1.0258785 -0.25279382 -0.666417 0.43043506
000220 ac f1 df bc 5d 1f 3a bf 9e 0d 01 3f 97 c6 d3 3e
       -0.027336918 -0.72704107 0.50411403 0.4136245
000230 11 43 d9 3d c5 2e b0 3e bf 6d 49 bf 99 48 23 bf
       0.10608495 0.34410682 -0.78683084 -0.6378265
000240 d4 56 0d be 88 42 4f 3e 1d ab 69 3d ce d8 8e bc
       -0.13802654 0.20240223 0.057047952 -0.017437365
000250 e2 28 8b bf 0b 02 54 be 80 5c 24 3f 80 33 ec bc
       -1.0871851 -0.20703904 0.64203644 -0.02883315
000260 8e 3f f8 be 2f 9c 0f bf dc 97 04 3e b4 75 8c 3f
       -0.48485988 -0.5609769 0.12948555 1.097342
000270 bd b1 ef 3e 68 03 d4 3e 4c 89 a8 3e ba 26 e2 3b
       0.4681529 0.4140885 0.3291725 0.006901589
000280 a4 ec eb ba 1a 17 47 3f 30 9e 5f 3f 0a 84 ee bd
       -0.0017999602 0.77769625 0.8735075 -0.11646278
000290 7b 33 52 3f b2 2b 82 3f 9a 84 1c 3e db 4e 89 3f
       0.821098 1.0169585 0.15284958 1.072719
0002a0 c6 69 7e 3f 37 ce 51 3f a7 7a 86 3e 28 65 6c 3f
       0.9938015 0.81955284 0.2626545 0.9234185
0002b0 4a d0 01 bf bf 88 19 bd 72 f0 2b 3f 4b 25 0c bf
       -0.5070845 -0.037483927 0.67163765 -0.54744405
0002c0 d4 6b e2 bd 82 c4 88 bd 5c 58 00 be 30 c9 6e 3f
       -0.11055723 -0.06678106 -0.12533706 0.9327574
0002d0 1e db 13 3f a5 48 0c bd 43 36 6f 3d 33 7e 04 3e
       0.5775622 -0.034248967 0.058401357 0.12938766
0002e0 d6 6d 63 bc 75 b3 69 3f 4b a6 b7 3e 5b 6d 31 bf
       -0.013881167 0.91289455 0.3586906 -0.6930749
0002f0 32 0f 30 be ab eb 90 3e c2 d0 1f 3f 68 9a 9a bd
       -0.17193297 0.283048 0.62427914 -0.07548982
000300 e0 d1 6c bf c4 b3 19 bf 6f 29 90 be 96 d4 d2 be
       -0.92507744 -0.60039926 -0.2815661 -0.41177815
000310 1b a5 1e be aa 82 58 be 4c d7 82 bf 20 50 84 bf
       -0.1549267 -0.21143594 -1.0221953 -1.0336952
000320 1d 3e 9b 3d 6e 45 85 bf da 4b 55 bf 25 64 74 bd
       0.075802065 -1.0411813 -0.83318865 -0.059665818
000330 89 14 82 bf ec 91 40 bf 0b cc 75 bf 6c b4 6b be
       -1.0162517 -0.7522266 -0.9601447 -0.23018044
000340 fb fc 33 bf f5 3a 40 3f f3 d0 e0 bc cb b8 4b bf
       -0.7030789 0.7508996 -0.027443385 -0.79578847
000350 be d3 a0 3e 7f ba 53 3e e9 b6 95 bd 74 40 ea 3e
       0.31411546 0.20676611 -0.07310278 0.457523
000360 2f c6 7d bf 27 c5 2e bf d1 54 fa bc 60 dd 31 3e
       -0.9913053 -0.6826958 -0.030558022 0.17369604
000370 39 81 7f bd d8 e6 0a 3d c2 7d 68 3f 54 b6 3e 3e
       -0.062379096 0.033911556 0.9081689 0.1862424
000380 09 a1 4f bf c9 98 1a be 19 cf a3 3e 31 d9 16 3f
       -0.81105095 -0.15097345 0.3199394 0.5892516
000390 8b 74 78 be 8e da 76 bf 08 71 f0 be 21 2e 51 be
       -0.24263208 -0.9642724 -0.46961236 -0.20427753
0003a0 62 cf c7 be cb 4c 8d be 6b 20 20 be 0f 14 74 bf
       -0.39025408 -0.2759765 -0.15637366 -0.95343107
0003b0 5a 0d 5e bf 46 b6 84 3d 18 b1 46 bf 41 19 6b bf
       -0.8673912 0.064800784 -0.77613974 -0.9183541
0003c0 d3 6d 2c be af 01 86 bf 99 62 55 bf 10 27 81 bf
       -0.1683877 -1.0469264 -0.83353573 -1.0090046
0003d0 5f a5 fc bd ff e3 4a bf be 8a 33 3f f7 9d 28 be
       -0.123362295 -0.79254144 0.7013358 -0.16466509
0003e0 9b d6 00 bf a1 2a 08 3f 23 91 92 3e 43 c4 67 3d
       -0.5032746 0.53190047 0.28626356 0.056583654
0003f0 da ef e7 3e 11 9d 5d bf e2 47 3a bf 45 0e 15 be
       0.4530018 -0.8656779 -0.72765934 -0.14556225

input.bias f4 [20]
000000 b7 71 12 3e 27 37 a2 3e 11 55 4b bd c3 35 03 be
       0.14301191 0.31682703 -0.049641673 -0.12813477
000010 a6 b4 0b 3e de bb f7 bd 33 3f 6b be ce 3b 26 3e
       0.1364313 -0.1209638 -0.22973327 0.16233751
000020 fc d9 19 be 7c 6f a0 be 51 b6 d2 bc fe 44 99 3e
       -0.1502456 -0.31335056 -0.0257217 0.2993545
000030 17 cf aa 3d d0 fd a8 bd bf 35 09 bd 45 27 40 bd
       0.083402805 -0.08251536 -0.033498522 -0.04691245
000040 20 35 c7 bd a8 04 ad bc b7 55 22 be ee 4b be 3d
       -0.0972693 -0.021120384 -0.1585301 0.09291826

linear_hl2.weight f4 [10, 20]
000000 ca dc 7c 3f 7b ed 59 3f 3e a6 78 bf 8f c2 4b bf
       0.987744 0.8512799 -0.97128665 -0.7959375
000010 57 08 73 3f 08 ef 5a bf f4 05 6a bf bf 18 58 3f
       0.949346 -0.8552098 -0.91415334 0.8441276
000020 75 06 4d bf 94 37 6e bf 83 f6 59 bf d0 8b 85 3f
       -0.8008798 -0.93053555 -0.8514177 1.0433292
000030 ba 75 82 3f c1 e0 6e bf 61 82 40 bf 8e 73 6b 3f
       1.0192177 -0.933117 -0.7519894 0.919732
000040 74 2c 29 bf 7a 84 23 3f 25 f8 36 bf 09 73 3c 3f
       -0.66083455 0.6387402 -0.7147239 0.7361303
000050 40 8a 1f 3f 9f d2 4b 3f 4c d8 66 bf d1 02 28 bf
       0.6232033 0.7961826 -0.9017379 -0.656293
000060 d6 0e 6e 3f a9 73 2a bf 29 fc 4e bf d3 03 46 3f
       0.9299139 -0.66582733 -0.80853516 0.77349585
000070 ed 41 5d bf 77 c1 18 bf 6e 39 4e bf 1d fa 84 3f
       -0.8642872 -0.59670204 -0.8055638 1.0388829
000080 43 2f 64 3f a2 70 2c bf c1 88 7d bf 77 64 7a 3f
       0.89134616 -0.67359364 -0.99036795 0.9780955
000090 3e fe 5e bf 9b 94 51 3f 78 13 15 bf 40 60 59 3f
       -0.8710669 0.8186738 -0.5823283 0.8491249
0000a0 eb ff 87 bf bd 7b 76 bf 7c 65 82 3f f7 36 5c 3f
       -1.0624975 -0.9628256 1.018722 0.8602137
0000b0 2e ea 54 bf ea 8a 53 3f b2 e8 3b 3f 77 b1 52 bf
       -0.8316983 0.8263384 0.7340194 -0.8230204
0000c0 a9 ad 2a 3f cc 8e 60 3f fd 90 44 3f 0f 4c 57 bf
       0.66671234 0.8771789 0.76783735 -0.8410043
0000d0 96 1f 82 bf fe 19 49 3f b1 f7 37 3f 37 0a 2b bf
       -1.0165889 0.78555286 0.7186232 -0.6681246
0000e0 9e 0b 42 3f 34 48 7f bf a2 d6 67 3f 81 9b 48 bf
       0.75798976 -0.9971955 0.9056188 -0.7836228
0000f0 e9 3d 82 3f 42 66 7c 3f c2 6b 65 bf 73 05 24 bf
       1.0175143 0.98593533 -0.8961755 -0.64070815
000100 c0 fc 44 3f 50 cb 69 bf 68 43 6e bf 44 ab 26 3f
       0.76948166 -0.91325855 -0.93071604 0.6510508
000110 bf 31 1f bf 46 af 74 bf 93 df 4b bf 08 af 65 3f
       -0.6218528 -0.95579946 -0.7963802 0.897202
000120 42 79 2e 3f 7d 31 6e bf bf a9 5e bf f8 47 29 3f
       0.68153775 -0.93044263 -0.8697776 0.6612544
000130 0d 01 4a bf 7a f2 34 3f dd b2 0e bf 29 ed 8b 3f
       -0.78907853 0.7068249 -0.55741674 1.093175
000140 e0 7f 3d bf 4e fd 71 bf 87 d8 47 3f 26 92 12 3f
       -0.74023247 -0.9452714 0.7806477 0.57254255
000150 f7 28 37 bf f7 13 4b 3f 81 ff 51 3f b0 70 6b bf
       -0.7154688 0.7932734 0.82030493 -0.9196882
000160 a6 28 15 3f c6 10 81 3f b3 95 82 3f 83 5b 30 bf
       0.5826515 1.0083244 1.0201935 -0.68889636
000170 6c 1c 75 bf 2c d5 7a 3f 17 cd 56 3f 36 30 3f bf
       -0.95746493 0.97981524 0.8390669 -0.7468294
000180 53 b3 74 3f d5 a9 43 bf e9 b5 3f 3f fc c3 2c bf
       0.9558613 -0.7643102 0.7488695 -0.6748655
000190 11 ab 85 bf 5a 1a 6a bf e1 a8 76 3f db fd 55 3f
       -1.044283 -0.9144646 0.9635144 0.8359048
0001a0 88 95 40 bf 38 e2 15 3f f1 0a 73 3f 18 79 54 bf
       -0.75228167 0.5854831 0.9493857 -0.82997274
0001b0 bc 9d 0d 3f ec 37 50 3f dd 03 4a 3f 5a ad 3d bf
       0.5531881 0.8133533 0.78912145 -0.7409264
0001c0 6d 69 65 bf 6a 66 68 3f 8e 44 34 3f 32 17 6d bf
       -0.8961399 0.9078127 0.70417106 -0.9261352
0001d0 e9 3a 30 3f 2e d9 1b bf 77 02 64 3f fe 45 6b bf
       0.6883989 -0.60878265 0.8906626 -0.91903675
0001e0 8c dd 6e 3f f7 55 71 3f e8 ce 79 bf 74 c6 02 bf
       0.93306804 0.94271797 -0.9758134 -0.51084065
0001f0 3a f5 7f 3f b5 66 7a bf bc 03 44 bf 2f 94 2b 3f
       0.9998356 -0.9781297 -0.765682 0.67022985
000200 c2 1b 6a bf fc 53 15 bf 77 23 49 bf f7 ac 6d 3f
       -0.91448605 -0.58331275 -0.7856974 0.9284205
000210 96 7b 87 3f 60 bc 53 bf 0b b6 34 bf 85 4b 41 3f
       1.058459 -0.8270931 -0.70590276 0.7550586
000220 80 fa 63 bf c7 34 3d 3f 69 e9 80 bf 90 bd 4f 3f
       -0.8905411 0.73908657 -1.0071231 0.81148624
000230 41 05 73 bf 07 d1 80 bf d2 9f 64 3f 79 8d 51 3f
       -0.9492989 -1.006379 0.89306366 0.81856495
000240 8d 9a 33 bf 8f 4b 7b 3f 34 b5 6a 3f c1 cf 70 bf
       -0.701577 0.9816217 0.91682744 -0.9406701
000250 0b ef 78 3f f6 f8 2b 3f 46 7c 1b 3f c4 bb 31 bf
       0.9723975 0.6717676 0.607365 -0.6942713
000260 4c 83 32 bf 51 91 86 3f 69 84 24 3f 1c bd 5e bf
       -0.69731593 1.0513097 0.6426454 -0.8700731
000270 38 d8 78 3f 24 53 28 bf 21 18 49 3f 49 4f 5b bf
       0.97204924 -0.6575186 0.7855244 -0.85667855
000280 1e 4a 69 bf 25 9d 3a bf 39 04 25 3f 0d 70 4c 3f
       -0.9112872 -0.72896034 0.6445957 0.79858476
000290 fc 70 82 bf 0f 2a 51 3f 73 ff 49 3f fc 5d 61 bf
       -1.019073 0.817048 0.7890541 -0.88034034
0002a0 7a 41 51 3f d3 34 6a 3f fe 5e 4c 3f 89 ab 69 bf
       0.81740534 0.91486853 0.79832447 -0.91277367
0002b0 f7 c7 73 bf d5 91 57 3f f7 84 6d 3f 38 e1 3a bf
       -0.95227 0.842069 0.92781013 -0.72999907
0002c0 64 a6 81 3f 92 9b 67 bf cc f5 6b 3f 45 af 54 bf
       1.0128903 -0.90471756 0.9217193 -0.8307994
0002d0 6f b0 55 3f 97 6c 4b 3f 2b 29 4b bf d9 cd 69 bf
       0.8347234 0.7946257 -0.7935969 -0.91329724
0002e0 7f e4 59 3f 3f c1 1d bf 8b 00 36 bf 3a d5 5b 3f
       0.8511428 -0.61622995 -0.7109458 0.8587223
0002f0 71 c9 7b bf f5 b6 2f bf c6 db 74 bf 89 57 78 3f
       -0.9835425 -0.68638545 -0.9564785 0.9700857
000300 e7 d2 44 3f f8 b0 68 bf ef d4 2c bf d8 5c 86 3f
       0.7688431 -0.9089503 -0.6751241 1.0497084
000310 da c4 8a bf 2c 96 35 3f e4 72 6e bf 46 a5 37 3f
       -1.0841324 0.7093227 -0.9314406 0.7173656

linear_hl2.bias f4 [10]
000000 8f 12 bf 3d 60 f1 02 be 90 2e b0 3c f0 b6 5d 3e
       0.09329712 -0.1278739 0.021506578 0.21651816
000010 c9 80 ea be 16 2b b1 bc ae 0c 64 3d b8 8d ea be
       -0.4580138 -0.02162699 0.055676155 -0.45811248
000020 0c 49 5b be 5d 8e b4 3e
       -0.21414584 0.35264865

linear_hl3.weight f4 [5, 10]
000000 4f 54 5a 3f 4c 70 4e 3f 19 49 1c bf 78 9a 71 3f
       0.85284895 0.806401 -0.6104904 0.94376326
000010 b2 03 55 bf 65 b7 6d bf 75 9f 84 3f c1 0d 37 bf
       -0.83208764 -0.9285796 1.0361162 -0.7150536
000020 48 ee 48 bf ae fd 50 3f a1 99 82 3f da 9c 49 3f
       -0.7848859 0.81637084 1.0203134 0.7875496
000030 a1 a1 53 bf f3 98 39 3f 8a 86 43 bf f4 69 2a bf
       -0.826685 0.72499007 -0.76377165 -0.6656792
000040 32 59 3a 3f 42 c0 63 bf 2c 88 8b bf 47 bb 2c 3f
       0.7279235 -0.8896524 -1.0900931 0.6747326
000050 07 aa 79 bf 40 b1 6a bf 90 5b 63 3f 1c 90 7a bf
       -0.97525066 -0.9167671 0.8881159 -0.97876143
000060 72 a9 5f 3f f4 02 4c 3f 63 62 61 bf 0c 28 81 3f
       0.8736793 0.79692006 -0.8804075 1.0090346
000070 2d b9 62 3f 13 bf 51 bf be f0 90 3f c8 96 87 3f
       0.88563806 -0.8193218 1.1323469 1.059289
000080 37 c3 12 bf 4e 89 69 3f 24 a2 22 bf f4 08 83 bf
       -0.57329124 0.91225135 -0.63528657 -1.0237107
000090 ad ea 80 3f a0 37 04 bf e6 65 8b bf d3 6c 57 3f
       1.0071617 -0.51647377 -1.0890472 0.8415043
0000a0 30 08 42 3f e2 79 76 3f 15 10 75 bf 97 8a 46 3f
       0.75793743 0.9627973 -0.95727664 0.7755522
0000b0 7c 10 65 bf d9 8a 4a bf d9 12 54 3f af b5 0e bf
       -0.8947828 -0.79118115 0.8284126 -0.5574598
0000c0 15 c7 85 bf d6 b7 5b 3f
       -1.045138 0.85827386

linear_hl3.bias f4 [5]
000000 22 8c 08 bf cd 0d 25 be 98 28 81 3e 3e b5 44 bf
       -0.53338826 -0.16118546 0.25226283 -0.76839054
000010 73 64 82 be
       -0.25467262

linear_hl4.weight f4 [1, 5]
000000 8b b1 48 bf 15 e3 82 bf b6 6c a9 3f 4d 71 84 bf
       -0.7839591 -1.022555 1.3236301 -1.0347077
000010 df 44 70 bf
       -0.9385509
